…
2023-02-27 23:40:55 | INFO | root | Using efficient attention MultiheadAttention
2023-02-27 23:40:55 | INFO | root | Using efficient attention FSAMLPSeq
2023-02-27 23:40:55 | INFO | root | Using efficient attention FSAMLPSeq
2023-02-27 23:40:55 | INFO | root | Using efficient attention MultiheadAttention
2023-02-27 23:40:55 | INFO | root | Using efficient attention FSAMLPSeq
2023-02-27 23:40:56 | INFO | root | Using efficient attention FSAMLPSeq
2023-02-27 23:40:56 | INFO | fairseq_cli.train | CMLMNATransformerModel(
  (encoder): FairseqNATEncoder(
    (dropout_module): FairseqDropout()
    (embed_tokens): Embedding(39960, 512, padding_idx=1)
    (embed_positions): LearnedPositionalEmbedding(1026, 512, padding_idx=1)
    (layers): ModuleList(
      (0): TransformerEncoderLayer(
        (self_attn): MultiheadAttention(
          (dropout_module): FairseqDropout()
          (k_proj): Linear(in_features=512, out_features=512, bias=True)
          (v_proj): Linear(in_features=512, out_features=512, bias=True)
          (q_proj): Linear(in_features=512, out_features=512, bias=True)
          (out_proj): Linear(in_features=512, out_features=512, bias=True)
        )
        (dropout_module): FairseqDropout()
        (activation_dropout_module): FairseqDropout()
        (fc1): Linear(in_features=512, out_features=2048, bias=True)
        (fc2): Linear(in_features=2048, out_features=512, bias=True)
        (self_attn_layer_norm): LayerNorm((512,), eps=1e-05, elementwise_affine=True)
        (final_layer_norm): LayerNorm((512,), eps=1e-05, elementwise_affine=True)
      )
      (1): TransformerEncoderLayer(
        (self_attn): MultiheadAttention(
          (dropout_module): FairseqDropout()
          (k_proj): Linear(in_features=512, out_features=512, bias=True)
          (v_proj): Linear(in_features=512, out_features=512, bias=True)
          (q_proj): Linear(in_features=512, out_features=512, bias=True)
          (out_proj): Linear(in_features=512, out_features=512, bias=True)
        )
        (dropout_module): FairseqDropout()
        (activation_dropout_module): FairseqDropout()
        (fc1): Linear(in_features=512, out_features=2048, bias=True)
        (fc2): Linear(in_features=2048, out_features=512, bias=True)
        (self_attn_layer_norm): LayerNorm((512,), eps=1e-05, elementwise_affine=True)
        (final_layer_norm): LayerNorm((512,), eps=1e-05, elementwise_affine=True)
      )
      (2): TransformerEncoderLayer(
        (self_attn): MultiheadAttention(
          (dropout_module): FairseqDropout()
          (k_proj): Linear(in_features=512, out_features=512, bias=True)
          (v_proj): Linear(in_features=512, out_features=512, bias=True)
          (q_proj): Linear(in_features=512, out_features=512, bias=True)
          (out_proj): Linear(in_features=512, out_features=512, bias=True)
        )
        (dropout_module): FairseqDropout()
        (activation_dropout_module): FairseqDropout()
        (fc1): Linear(in_features=512, out_features=2048, bias=True)
        (fc2): Linear(in_features=2048, out_features=512, bias=True)
        (self_attn_layer_norm): LayerNorm((512,), eps=1e-05, elementwise_affine=True)
        (final_layer_norm): LayerNorm((512,), eps=1e-05, elementwise_affine=True)
      )
      (3): TransformerEncoderLayer(
        (self_attn): MultiheadAttention(
          (dropout_module): FairseqDropout()
          (k_proj): Linear(in_features=512, out_features=512, bias=True)
          (v_proj): Linear(in_features=512, out_features=512, bias=True)
          (q_proj): Linear(in_features=512, out_features=512, bias=True)
          (out_proj): Linear(in_features=512, out_features=512, bias=True)
        )
        (dropout_module): FairseqDropout()
        (activation_dropout_module): FairseqDropout()
        (fc1): Linear(in_features=512, out_features=2048, bias=True)
        (fc2): Linear(in_features=2048, out_features=512, bias=True)
        (self_attn_layer_norm): LayerNorm((512,), eps=1e-05, elementwise_affine=True)
        (final_layer_norm): LayerNorm((512,), eps=1e-05, elementwise_affine=True)
      )
      (4): TransformerEncoderLayer(
        (self_attn): MultiheadAttention(
          (dropout_module): FairseqDropout()
          (k_proj): Linear(in_features=512, out_features=512, bias=True)
          (v_proj): Linear(in_features=512, out_features=512, bias=True)
          (q_proj): Linear(in_features=512, out_features=512, bias=True)
          (out_proj): Linear(in_features=512, out_features=512, bias=True)
        )
        (dropout_module): FairseqDropout()
        (activation_dropout_module): FairseqDropout()
        (fc1): Linear(in_features=512, out_features=2048, bias=True)
        (fc2): Linear(in_features=2048, out_features=512, bias=True)
        (self_attn_layer_norm): LayerNorm((512,), eps=1e-05, elementwise_affine=True)
        (final_layer_norm): LayerNorm((512,), eps=1e-05, elementwise_affine=True)
      )
      (5): TransformerEncoderLayer(
        (self_attn): MultiheadAttention(
          (dropout_module): FairseqDropout()
          (k_proj): Linear(in_features=512, out_features=512, bias=True)
          (v_proj): Linear(in_features=512, out_features=512, bias=True)
          (q_proj): Linear(in_features=512, out_features=512, bias=True)
          (out_proj): Linear(in_features=512, out_features=512, bias=True)
        )
        (dropout_module): FairseqDropout()
        (activation_dropout_module): FairseqDropout()
        (fc1): Linear(in_features=512, out_features=2048, bias=True)
        (fc2): Linear(in_features=2048, out_features=512, bias=True)
        (self_attn_layer_norm): LayerNorm((512,), eps=1e-05, elementwise_affine=True)
        (final_layer_norm): LayerNorm((512,), eps=1e-05, elementwise_affine=True)
      )
    )
    (PEfc): Linear(in_features=1024, out_features=512, bias=True)
  )
  (decoder): NATransformerDecoder(
    (dropout_module): FairseqDropout()
    (embed_tokens): Embedding(39960, 512, padding_idx=1)
    (PEfc): Linear(in_features=1024, out_features=512, bias=True)
    (embed_positions): LearnedPositionalEmbedding(1026, 512, padding_idx=1)
    (layers): ModuleList(
      (0): TransformerDecoderLayer(
        (dropout_module): FairseqDropout()
        (self_attn_unmasked): MultiheadAttention(
          (dropout_module): FairseqDropout()
          (k_proj): Linear(in_features=512, out_features=512, bias=True)
          (v_proj): Linear(in_features=512, out_features=512, bias=True)
          (q_proj): Linear(in_features=512, out_features=512, bias=True)
          (out_proj): Linear(in_features=512, out_features=512, bias=True)
        )
        (self_attn): FSCls(
          (q_proj): Linear(in_features=512, out_features=512, bias=True)
          (k_proj): Linear(in_features=512, out_features=512, bias=True)
          (v_proj): Linear(in_features=512, out_features=512, bias=True)
          (out_proj): Linear(in_features=512, out_features=512, bias=True)
          (q_norm): LayerNorm((64,), eps=1e-05, elementwise_affine=True)
          (k_norm): LayerNorm((64,), eps=1e-05, elementwise_affine=True)
          (v_norm): LayerNorm((64,), eps=1e-05, elementwise_affine=True)
          (w_norm): LayerNorm((64,), eps=1e-05, elementwise_affine=True)
          (approx_out_proj): Linear(in_features=128, out_features=64, bias=True)
          (conv): Conv2d(8, 8, kernel_size=(5, 1), stride=(1, 1), padding=(2, 0), groups=8)
          (drop): Dropout(p=0.0, inplace=False)
          (out_norm): LayerNorm((64,), eps=1e-05, elementwise_affine=True)
        )
        (activation_dropout_module): FairseqDropout()
        (fc1): Linear(in_features=512, out_features=2048, bias=True)
        (fc2): Linear(in_features=2048, out_features=512, bias=True)
        (self_attn_layer_norm): LayerNorm((512,), eps=1e-05, elementwise_affine=True)
        (final_layer_norm): LayerNorm((512,), eps=1e-05, elementwise_affine=True)
        (self_attn_unmasked_layer_norm): LayerNorm((512,), eps=1e-05, elementwise_affine=True)
        (encoder_attn): FSCls(
          (q_proj): Linear(in_features=512, out_features=512, bias=True)
          (k_proj): Linear(in_features=512, out_features=512, bias=True)
          (v_proj): Linear(in_features=512, out_features=512, bias=True)
          (out_proj): Linear(in_features=512, out_features=512, bias=True)
          (q_norm): LayerNorm((64,), eps=1e-05, elementwise_affine=True)
          (k_norm): LayerNorm((64,), eps=1e-05, elementwise_affine=True)
          (v_norm): LayerNorm((64,), eps=1e-05, elementwise_affine=True)
          (w_norm): LayerNorm((64,), eps=1e-05, elementwise_affine=True)
          (approx_out_proj): Linear(in_features=128, out_features=64, bias=True)
          (conv): Conv2d(8, 8, kernel_size=(5, 1), stride=(1, 1), padding=(2, 0), groups=8)
          (drop): Dropout(p=0.0, inplace=False)
          (out_norm): LayerNorm((64,), eps=1e-05, elementwise_affine=True)
        )
        (encoder_attn_layer_norm): LayerNorm((512,), eps=1e-05, elementwise_affine=True)
      )
      (1): TransformerDecoderLayer(
        (dropout_module): FairseqDropout()
        (self_attn_unmasked): MultiheadAttention(
          (dropout_module): FairseqDropout()
          (k_proj): Linear(in_features=512, out_features=512, bias=True)
          (v_proj): Linear(in_features=512, out_features=512, bias=True)
          (q_proj): Linear(in_features=512, out_features=512, bias=True)
          (out_proj): Linear(in_features=512, out_features=512, bias=True)
        )
        (self_attn): FSCls(
          (q_proj): Linear(in_features=512, out_features=512, bias=True)
          (k_proj): Linear(in_features=512, out_features=512, bias=True)
          (v_proj): Linear(in_features=512, out_features=512, bias=True)
          (out_proj): Linear(in_features=512, out_features=512, bias=True)
          (q_norm): LayerNorm((64,), eps=1e-05, elementwise_affine=True)
          (k_norm): LayerNorm((64,), eps=1e-05, elementwise_affine=True)
          (v_norm): LayerNorm((64,), eps=1e-05, elementwise_affine=True)
          (w_norm): LayerNorm((64,), eps=1e-05, elementwise_affine=True)
          (approx_out_proj): Linear(in_features=128, out_features=64, bias=True)
          (conv): Conv2d(8, 8, kernel_size=(5, 1), stride=(1, 1), padding=(2, 0), groups=8)
          (drop): Dropout(p=0.0, inplace=False)
          (out_norm): LayerNorm((64,), eps=1e-05, elementwise_affine=True)
        )
        (activation_dropout_module): FairseqDropout()
        (fc1): Linear(in_features=512, out_features=2048, bias=True)
        (fc2): Linear(in_features=2048, out_features=512, bias=True)
        (self_attn_layer_norm): LayerNorm((512,), eps=1e-05, elementwise_affine=True)
        (final_layer_norm): LayerNorm((512,), eps=1e-05, elementwise_affine=True)
        (self_attn_unmasked_layer_norm): LayerNorm((512,), eps=1e-05, elementwise_affine=True)
        (encoder_attn): FSCls(
          (q_proj): Linear(in_features=512, out_features=512, bias=True)
          (k_proj): Linear(in_features=512, out_features=512, bias=True)
          (v_proj): Linear(in_features=512, out_features=512, bias=True)
          (out_proj): Linear(in_features=512, out_features=512, bias=True)
          (q_norm): LayerNorm((64,), eps=1e-05, elementwise_affine=True)
          (k_norm): LayerNorm((64,), eps=1e-05, elementwise_affine=True)
          (v_norm): LayerNorm((64,), eps=1e-05, elementwise_affine=True)
          (w_norm): LayerNorm((64,), eps=1e-05, elementwise_affine=True)
          (approx_out_proj): Linear(in_features=128, out_features=64, bias=True)
          (conv): Conv2d(8, 8, kernel_size=(5, 1), stride=(1, 1), padding=(2, 0), groups=8)
          (drop): Dropout(p=0.0, inplace=False)
          (out_norm): LayerNorm((64,), eps=1e-05, elementwise_affine=True)
        )
        (encoder_attn_layer_norm): LayerNorm((512,), eps=1e-05, elementwise_affine=True)
      )
      (2): TransformerDecoderLayer(
        (dropout_module): FairseqDropout()
        (self_attn_unmasked): MultiheadAttention(
          (dropout_module): FairseqDropout()
          (k_proj): Linear(in_features=512, out_features=512, bias=True)
          (v_proj): Linear(in_features=512, out_features=512, bias=True)
          (q_proj): Linear(in_features=512, out_features=512, bias=True)
          (out_proj): Linear(in_features=512, out_features=512, bias=True)
        )
        (self_attn): FSCls(
          (q_proj): Linear(in_features=512, out_features=512, bias=True)
          (k_proj): Linear(in_features=512, out_features=512, bias=True)
          (v_proj): Linear(in_features=512, out_features=512, bias=True)
          (out_proj): Linear(in_features=512, out_features=512, bias=True)
          (q_norm): LayerNorm((64,), eps=1e-05, elementwise_affine=True)
          (k_norm): LayerNorm((64,), eps=1e-05, elementwise_affine=True)
          (v_norm): LayerNorm((64,), eps=1e-05, elementwise_affine=True)
          (w_norm): LayerNorm((64,), eps=1e-05, elementwise_affine=True)
          (approx_out_proj): Linear(in_features=128, out_features=64, bias=True)
          (conv): Conv2d(8, 8, kernel_size=(5, 1), stride=(1, 1), padding=(2, 0), groups=8)
          (drop): Dropout(p=0.0, inplace=False)
          (out_norm): LayerNorm((64,), eps=1e-05, elementwise_affine=True)
        )
        (activation_dropout_module): FairseqDropout()
        (fc1): Linear(in_features=512, out_features=2048, bias=True)
        (fc2): Linear(in_features=2048, out_features=512, bias=True)
        (self_attn_layer_norm): LayerNorm((512,), eps=1e-05, elementwise_affine=True)
        (final_layer_norm): LayerNorm((512,), eps=1e-05, elementwise_affine=True)
        (self_attn_unmasked_layer_norm): LayerNorm((512,), eps=1e-05, elementwise_affine=True)
        (encoder_attn): FSCls(
          (q_proj): Linear(in_features=512, out_features=512, bias=True)
          (k_proj): Linear(in_features=512, out_features=512, bias=True)
          (v_proj): Linear(in_features=512, out_features=512, bias=True)
          (out_proj): Linear(in_features=512, out_features=512, bias=True)
          (q_norm): LayerNorm((64,), eps=1e-05, elementwise_affine=True)
          (k_norm): LayerNorm((64,), eps=1e-05, elementwise_affine=True)
          (v_norm): LayerNorm((64,), eps=1e-05, elementwise_affine=True)
          (w_norm): LayerNorm((64,), eps=1e-05, elementwise_affine=True)
          (approx_out_proj): Linear(in_features=128, out_features=64, bias=True)
          (conv): Conv2d(8, 8, kernel_size=(5, 1), stride=(1, 1), padding=(2, 0), groups=8)
          (drop): Dropout(p=0.0, inplace=False)
          (out_norm): LayerNorm((64,), eps=1e-05, elementwise_affine=True)
        )
        (encoder_attn_layer_norm): LayerNorm((512,), eps=1e-05, elementwise_affine=True)
      )
      (3): TransformerDecoderLayer(
        (dropout_module): FairseqDropout()
        (self_attn_unmasked): MultiheadAttention(
          (dropout_module): FairseqDropout()
          (k_proj): Linear(in_features=512, out_features=512, bias=True)
          (v_proj): Linear(in_features=512, out_features=512, bias=True)
          (q_proj): Linear(in_features=512, out_features=512, bias=True)
          (out_proj): Linear(in_features=512, out_features=512, bias=True)
        )
        (self_attn): FSCls(
          (q_proj): Linear(in_features=512, out_features=512, bias=True)
          (k_proj): Linear(in_features=512, out_features=512, bias=True)
          (v_proj): Linear(in_features=512, out_features=512, bias=True)
          (out_proj): Linear(in_features=512, out_features=512, bias=True)
          (q_norm): LayerNorm((64,), eps=1e-05, elementwise_affine=True)
          (k_norm): LayerNorm((64,), eps=1e-05, elementwise_affine=True)
          (v_norm): LayerNorm((64,), eps=1e-05, elementwise_affine=True)
          (w_norm): LayerNorm((64,), eps=1e-05, elementwise_affine=True)
          (approx_out_proj): Linear(in_features=128, out_features=64, bias=True)
          (conv): Conv2d(8, 8, kernel_size=(5, 1), stride=(1, 1), padding=(2, 0), groups=8)
          (drop): Dropout(p=0.0, inplace=False)
          (out_norm): LayerNorm((64,), eps=1e-05, elementwise_affine=True)
        )
        (activation_dropout_module): FairseqDropout()
        (fc1): Linear(in_features=512, out_features=2048, bias=True)
        (fc2): Linear(in_features=2048, out_features=512, bias=True)
        (self_attn_layer_norm): LayerNorm((512,), eps=1e-05, elementwise_affine=True)
        (final_layer_norm): LayerNorm((512,), eps=1e-05, elementwise_affine=True)
        (self_attn_unmasked_layer_norm): LayerNorm((512,), eps=1e-05, elementwise_affine=True)
        (encoder_attn): FSCls(
          (q_proj): Linear(in_features=512, out_features=512, bias=True)
          (k_proj): Linear(in_features=512, out_features=512, bias=True)
          (v_proj): Linear(in_features=512, out_features=512, bias=True)
          (out_proj): Linear(in_features=512, out_features=512, bias=True)
          (q_norm): LayerNorm((64,), eps=1e-05, elementwise_affine=True)
          (k_norm): LayerNorm((64,), eps=1e-05, elementwise_affine=True)
          (v_norm): LayerNorm((64,), eps=1e-05, elementwise_affine=True)
          (w_norm): LayerNorm((64,), eps=1e-05, elementwise_affine=True)
          (approx_out_proj): Linear(in_features=128, out_features=64, bias=True)
          (conv): Conv2d(8, 8, kernel_size=(5, 1), stride=(1, 1), padding=(2, 0), groups=8)
          (drop): Dropout(p=0.0, inplace=False)
          (out_norm): LayerNorm((64,), eps=1e-05, elementwise_affine=True)
        )
        (encoder_attn_layer_norm): LayerNorm((512,), eps=1e-05, elementwise_affine=True)
      )
      (4): TransformerDecoderLayer(
        (dropout_module): FairseqDropout()
        (self_attn_unmasked): MultiheadAttention(
          (dropout_module): FairseqDropout()
          (k_proj): Linear(in_features=512, out_features=512, bias=True)
          (v_proj): Linear(in_features=512, out_features=512, bias=True)
          (q_proj): Linear(in_features=512, out_features=512, bias=True)
          (out_proj): Linear(in_features=512, out_features=512, bias=True)
        )
        (self_attn): FSCls(
          (q_proj): Linear(in_features=512, out_features=512, bias=True)
          (k_proj): Linear(in_features=512, out_features=512, bias=True)
          (v_proj): Linear(in_features=512, out_features=512, bias=True)
          (out_proj): Linear(in_features=512, out_features=512, bias=True)
          (q_norm): LayerNorm((64,), eps=1e-05, elementwise_affine=True)
          (k_norm): LayerNorm((64,), eps=1e-05, elementwise_affine=True)
          (v_norm): LayerNorm((64,), eps=1e-05, elementwise_affine=True)
          (w_norm): LayerNorm((64,), eps=1e-05, elementwise_affine=True)
          (approx_out_proj): Linear(in_features=128, out_features=64, bias=True)
          (conv): Conv2d(8, 8, kernel_size=(5, 1), stride=(1, 1), padding=(2, 0), groups=8)
          (drop): Dropout(p=0.0, inplace=False)
          (out_norm): LayerNorm((64,), eps=1e-05, elementwise_affine=True)
        )
        (activation_dropout_module): FairseqDropout()
        (fc1): Linear(in_features=512, out_features=2048, bias=True)
        (fc2): Linear(in_features=2048, out_features=512, bias=True)
        (self_attn_layer_norm): LayerNorm((512,), eps=1e-05, elementwise_affine=True)
        (final_layer_norm): LayerNorm((512,), eps=1e-05, elementwise_affine=True)
        (self_attn_unmasked_layer_norm): LayerNorm((512,), eps=1e-05, elementwise_affine=True)
        (encoder_attn): FSCls(
          (q_proj): Linear(in_features=512, out_features=512, bias=True)
          (k_proj): Linear(in_features=512, out_features=512, bias=True)
          (v_proj): Linear(in_features=512, out_features=512, bias=True)
          (out_proj): Linear(in_features=512, out_features=512, bias=True)
          (q_norm): LayerNorm((64,), eps=1e-05, elementwise_affine=True)
          (k_norm): LayerNorm((64,), eps=1e-05, elementwise_affine=True)
          (v_norm): LayerNorm((64,), eps=1e-05, elementwise_affine=True)
          (w_norm): LayerNorm((64,), eps=1e-05, elementwise_affine=True)
          (approx_out_proj): Linear(in_features=128, out_features=64, bias=True)
          (conv): Conv2d(8, 8, kernel_size=(5, 1), stride=(1, 1), padding=(2, 0), groups=8)
          (drop): Dropout(p=0.0, inplace=False)
          (out_norm): LayerNorm((64,), eps=1e-05, elementwise_affine=True)
        )
        (encoder_attn_layer_norm): LayerNorm((512,), eps=1e-05, elementwise_affine=True)
      )
      (5): TransformerDecoderLayer(
        (dropout_module): FairseqDropout()
        (self_attn_unmasked): MultiheadAttention(
          (dropout_module): FairseqDropout()
          (k_proj): Linear(in_features=512, out_features=512, bias=True)
          (v_proj): Linear(in_features=512, out_features=512, bias=True)
          (q_proj): Linear(in_features=512, out_features=512, bias=True)
          (out_proj): Linear(in_features=512, out_features=512, bias=True)
        )
        (self_attn): FSCls(
          (q_proj): Linear(in_features=512, out_features=512, bias=True)
          (k_proj): Linear(in_features=512, out_features=512, bias=True)
          (v_proj): Linear(in_features=512, out_features=512, bias=True)
          (out_proj): Linear(in_features=512, out_features=512, bias=True)
          (q_norm): LayerNorm((64,), eps=1e-05, elementwise_affine=True)
          (k_norm): LayerNorm((64,), eps=1e-05, elementwise_affine=True)
          (v_norm): LayerNorm((64,), eps=1e-05, elementwise_affine=True)
          (w_norm): LayerNorm((64,), eps=1e-05, elementwise_affine=True)
          (approx_out_proj): Linear(in_features=128, out_features=64, bias=True)
          (conv): Conv2d(8, 8, kernel_size=(5, 1), stride=(1, 1), padding=(2, 0), groups=8)
          (drop): Dropout(p=0.0, inplace=False)
          (out_norm): LayerNorm((64,), eps=1e-05, elementwise_affine=True)
        )
        (activation_dropout_module): FairseqDropout()
        (fc1): Linear(in_features=512, out_features=2048, bias=True)
        (fc2): Linear(in_features=2048, out_features=512, bias=True)
        (self_attn_layer_norm): LayerNorm((512,), eps=1e-05, elementwise_affine=True)
        (final_layer_norm): LayerNorm((512,), eps=1e-05, elementwise_affine=True)
        (self_attn_unmasked_layer_norm): LayerNorm((512,), eps=1e-05, elementwise_affine=True)
        (encoder_attn): FSCls(
          (q_proj): Linear(in_features=512, out_features=512, bias=True)
          (k_proj): Linear(in_features=512, out_features=512, bias=True)
          (v_proj): Linear(in_features=512, out_features=512, bias=True)
          (out_proj): Linear(in_features=512, out_features=512, bias=True)
          (q_norm): LayerNorm((64,), eps=1e-05, elementwise_affine=True)
          (k_norm): LayerNorm((64,), eps=1e-05, elementwise_affine=True)
          (v_norm): LayerNorm((64,), eps=1e-05, elementwise_affine=True)
          (w_norm): LayerNorm((64,), eps=1e-05, elementwise_affine=True)
          (approx_out_proj): Linear(in_features=128, out_features=64, bias=True)
          (conv): Conv2d(8, 8, kernel_size=(5, 1), stride=(1, 1), padding=(2, 0), groups=8)
          (drop): Dropout(p=0.0, inplace=False)
          (out_norm): LayerNorm((64,), eps=1e-05, elementwise_affine=True)
        )
        (encoder_attn_layer_norm): LayerNorm((512,), eps=1e-05, elementwise_affine=True)
      )
    )
    (output_projection): Linear(in_features=512, out_features=39960, bias=False)
    (embed_length): Embedding(256, 512)
  )
)
2023-02-27 23:40:56 | INFO | fairseq_cli.train | task: translation_lev (TranslationLevenshteinTask)
2023-02-27 23:40:56 | INFO | fairseq_cli.train | model: cmlm_transformer_wmt_en_de (CMLMNATransformerModel)
2023-02-27 23:40:56 | INFO | fairseq_cli.train | criterion: nat_loss (LabelSmoothedDualImitationCriterion)
2023-02-27 23:40:56 | INFO | fairseq_cli.train | num. model params: 73443136 (num. trained: 73443136)
…
